models/best_mnist.pt (torch, 243563 bytes, 10 tensors)

conv1.weight f4 [6, 1, 3, 3]
00000000: 110a 09bd 5831 c23e c3de e43d d5bc f13e
00000010: e976 693d 7884 173e 309a 03be 76da b23e
00000020: 6f14 d8bc 6621 d93d b4d0 1abe b9aa 7c3e
00000030: c7d5 26be ea13 a43e 1fe6 9a3e d957 2f3e
00000040: 14c1 ab3e 4b00 883e 981d 8a3e 9975 5d3d
00000050: 790e 833d 9602 973e b5ed af3e f3cf 0cbe
00000060: 0fc9 363e 0e23 9d3c 0ef7 2fbe 19a1 02bc
00000070: 194d 493d 2184 283c 0153 20bd c7d2 b33e
00000080: 9b7d 563e bb6c 1abd 6eb9 463e 7b57 d33e
00000090: 4a9f b5b9 86ca 9dbc 6e3f e13e a1ee 813a
000000a0: 6bbe 5d3e d868 373d 92e8 ae3e 9dbf 5b3c
000000b0: 2485 9d3e 640b 773e a948 7e3c 6f06 023d
000000c0: 07a3 973e 52b4 9abd de5a 43be bd99 c1be
000000d0: a1af f8be 8615 20bd
-0.033456866 0.3792827 0.11175301 0.4721438 0.056998167 0.14796627 -0.12851787 0.34932297
-0.026376931 0.10602073 -0.15118676 0.246745 -0.16292487 0.32046443 0.30253693 0.17123355
0.33545744 0.26562724 0.26975703 0.054067228 0.06399245 0.2949416 0.34361044 -0.13751201
0.17850135 0.019181754 -0.17184088 -0.007972979 0.04914579 0.010285408 -0.03914166 0.35121748
0.20946352 -0.03770135 0.19406673 0.4127768 -0.0003464169 -0.01926161 0.43993706 0.0009913036
0.2165467 0.04477772 0.34161812 0.013412383 0.3076564 0.24125439 0.015520253 0.031744417
0.29616567 -0.075539246 -0.19077632 -0.37812606 -0.48571494 -0.039083026

conv1.bias f4 [6]
00000000: b8a4 81bd fcbd c63d a9eb 633e baa3 50b9
00000010: ffa9 da3c 03f6 293e
-0.06330246 0.097042054 0.22257866 -0.00019897419 0.026692389 0.16597752

conv2.weight f4 [16, 6, 3, 3]
00000000: e0b6 ea3d 21eb 093e 44a9 30be ebe5 d93d
00000010: d071 29be 3794 43be 7db4 52be 2e15 a9be
00000020: 0bfa b9bd 5af8 583c 96b0 65bd 1233 43be
00000030: e05c 19bd 4b0c abbd fa35 febc 50ff 0ebe
00000040: effd 4bbe 5534 6c3e 482b 2c3e e0ee a03c
00000050: a7aa aa3c 979f 0a3e d104 563e 631b 2bbd
00000060: 9f83 c13d 2e73 23bd be2b 613d fd66 183e
00000070: bb9c f8bc 5d97 7ebe ed97 423c 7fe6 9fbe
00000080: 122e 1a3e fb65 1bbe b06c d3bd 655c 303c
00000090: af77 233e 65a1 d5bb ea52 8cbe ed63 6ebd
000000a0: fa26 19be 6b81 bcbd aa3b fbbc c318 33be
000000b0: 3bdb 223e 6719 a03b a7a2 733e 2bc5 833e
000000c0: 974b 8a3e d6b6 c93d 38dd a33d 7c6b 193e
000000d0: f02d 5f3e e7b2 e33d 2140 eabd 4f0a 283e
000000e0: b5a7 033e 6c10 02bd e726 2dbc 780c 253d
000000f0: a4c9 513e fba9 a0bc 4274 483d bc17 113d
00000100: 4f11 16bd f06a bf3d 1fa5 5d3e 9a03 993d
00000110: 7383 c13d db9e 2e3e 45e1 2b3e 39e2 d43d
00000120: bb38 24be cb05 46bc 4000 1c3e 26ae 39be
00000130: 36d0 d4bd 5982 98bb 78b8 ea3d b13e 61bd
00000140: 5d3c 963d 8608 a4bd a0de 6abd 563e b2bd
00000150: cba3 c53d 106e df3d a908 283e aaf7 1e3d
00000160: a797 9cbd 3f9f 303e e938 04be 0c49 8e3d
00000170: b407 063e 282a 2f3e 5656 073e 4999 39bd
00000180: 7059 81bc c4f2 fd3d ae1f 173e 036d 9c3d
00000190: 7ce5 4fbe c1b4 913c 6ed8 0b3d fb3b 303c
000001a0: 968f a6bd 33f3 e53d 650c 533e 42d0 1bbe
000001b0: 8008 fa3d 485b c33d 6d7a 0d3d 3f53 153e
000001c0: e664 03bc fab1 aabc 22d3 743d 384a 443e
000001d0: b4b6 c23d 2428 553e ca7c 143e 18c4 0abe
000001e0: 21ba 6a3d dc5e 123e 5b3e 103d 252d 4b3d
000001f0: c991 3a3e da0e 103e c9cf 403e 0363 1c3e
00000200: fce7 a2bc 14a8 1a3e 2e19 123d 7456 08be
00000210: bfa1 773d 7a03 00be 9636 a23c c38c ba3d
00000220: d83e 9b3c e082 33be 23af 0e3e 8988 be3d
00000230: 01a5 2ebc 878d c83d d28b 243e 84f1 c13d
00000240: cc58 3f3e bfd5 9c3c 6209 95bd e2b7 b4bc
00000250: bf50 02be 939e 8bbd eae7 a43d e327 083e
00000260: 0c56 1a3e 4e0e 2dbc 6b84 01be b393 73bd
00000270: fbf4 aebb f0c8 73be 306e 3dbe 30f2 f5bd
00000280: fa98 90be af22 8bbe fd55 58bd 7411 8f3d
00000290: fcc4 6bbd 372a 0bbe cc34 83bd 48e2 4c3d
000002a0: 7426 023d b6f9 8f3d c5bf a83d c65f 213c
000002b0: a59d 9cbc e3ef 413d a28b 02be d537 95bd
000002c0: abf8 babd 7e64 83bc 88d3 10be d534 8dbc
000002d0: 02bc d9bd 29e9 21bd 7ff3 c4bd e69d 38bd
000002e0: c5c7 243d e3e4 0cbd c374 cebd b774 00be
000002f0: e417 4dbd 583a b1bc 804f c5bc d64d d3bd
00000300: d295 80bd 5c3b cc3d b232 0b3b 4efd acbd
00000310: 0344 ff3d 2ea6 cabd 1164 f5bd 5c3f b33d
00000320: b729 01bd 7fd4 b73d bc12 2fbd cfac 733d
00000330: e178 b03c 7119 eebb f867 1dbe 061f e9bc
00000340: 5c38 bbbd 38b0 243d 13ad 0e3d cb4f c73d
00000350: c85a b13d 2b81 a03d 8ce4 be3d 8178 c0bd
00000360: 34e4 bc3c 60e0 10bd 8481 ee3d 2ff4 24bb
00000370: 3f08 dbbd 3dbc d93d 502b 263e 9b5b 1bbc
00000380: 4acc 46bd 069a e2bd e4e9 5cbd 3aec 113e
00000390: 96b4 643c 648d 13bd a545 afbc 3d5e 3a3e
000003a0: 93c7 1b3e 1077 68bd 2517 6ebc 93db d3bd
000003b0: 6402 803c 85d7 b73d 2913 e2bd 6b2c 113e
000003c0: 9840 e53c 30b2 2f3e b1a8 843b 01d8 e93d
000003d0: 8618 293e 87e6 b43d 708d cc3d dded 083e
000003e0: 77ca 48bc 984f 583d c209 bf3c 7a44 21be
000003f0: 4632 643d 4a7f a8bd b2ed 0a3e c41f e1bc
0.11460662 0.13468601 -0.1725207 0.106395565 -0.16547322 -0.19099508 -0.20576663 -0.3302397
-0.09080895 0.013242805 -0.05607661 -0.1906245 -0.037442088 -0.08351954 -0.031031597 -0.13964581
-0.19921087 0.23066838 0.16813385 0.019645154 0.020833327 0.13537441 0.20900275 -0.041774165
0.09448933 -0.039904766 0.054973356 0.14883037 -0.030348172 -0.24862428 0.011877042 -0.31230542
0.15056637 -0.15175621 -0.10323465 0.010764216 0.15963624 -0.006519484 -0.27407008 -0.058200765
-0.14956275 -0.09204372 -0.030668098 -0.17489915 0.15903942 0.0048858407 0.23792516 0.25736365
0.27010795 0.09849326 0.080011785 0.14982408 0.21794868 0.11118107 -0.11438013 0.16410182
0.12856944 -0.031753942 -0.010568357 0.040295094 0.20487076 -0.019612303 0.048938997 0.035423025
-0.0366376 0.093465686 0.2164502 0.0747139 0.094489 0.17052786 0.16785152 0.10394711
-0.16037266 -0.012086342 0.1523447 -0.18132839 -0.103912756 -0.0046542105 0.11460966 -0.054991428
0.07335732 -0.08009438 -0.057341218 -0.08703296 0.09650382 0.10909665 0.16409554 0.03881041
-0.07646113 0.17248248 -0.12912335 0.06947526 0.13088876 0.17105925 0.13216528 -0.0453122
-0.015789717 0.123998195 0.14758179 0.0763798 -0.20302385 0.017786385 0.03414195 0.010756488
-0.081328556 0.11228027 0.20610197 -0.15216163 0.122086525 0.09538895 0.034540582 0.14582537
-0.0080196615 -0.020836819 0.059771664 0.19168937 0.09507504 0.20816094 0.14500728 -0.13551366
0.057306413 0.14293998 0.035215717 0.0496036 0.18219675 0.14068165 0.18829264 0.15272145
-0.01988601 0.15103179 0.035668544 -0.13314229 0.060456987 -0.12501326 0.01980142 0.091088794
0.018950865 -0.17530394 0.13933997 0.09303386 -0.010659457 0.09792619 0.16068962 0.094698936
0.18686217 0.01914489 -0.0727718 -0.022060338 -0.12726115 -0.06817355 0.080520466 0.13296466
0.15071887 -0.010562493 -0.1264817 -0.05946703 -0.0053392625 -0.2380712 -0.18499064 -0.12009084
-0.28241712 -0.271749 -0.05281638 0.06985751 -0.057560906 -0.13590322 -0.064065546 0.050020486
0.031774953 0.070300505 0.08239702 0.009849494 -0.01911814 0.047347914 -0.12748578 -0.0728604
-0.09129461 -0.01603913 -0.14143193 -0.017237106 -0.10631563 -0.039529 -0.09616756 -0.04507246
0.040229578 -0.03439797 -0.10080864 -0.12544523 -0.050071612 -0.021634266 -0.02408576 -0.103175804
-0.06278576 0.099722594 0.0021239934 -0.084467515 0.12464144 -0.098949775 -0.11981977 0.08752319
-0.031533923 0.08976077 -0.042742476 0.059490975 0.021542015 -0.0072662164 -0.15371692 -0.028457176
-0.09141609 0.040207118 0.034833025 0.09732016 0.08659893 0.07837137 0.093209356 -0.09397984
0.023058034 -0.03537023 0.11645797 -0.0025169959 -0.10694932 0.10631607 0.1622746 -0.00948229
-0.04853467 -0.11064534 -0.053933993 0.1425027 0.013959071 -0.036023512 -0.021395514 0.18200012
0.1521285 -0.05675417 -0.014531885 -0.10344615 0.01562614 0.08976654 -0.11038811 0.141771
0.027984902 0.17157817 0.00404843 0.114181526 0.16513261 0.08833032 0.099879146 0.13371988
-0.012255303 0.05281028 0.023320083 -0.15748778 0.055712007 -0.082274035 0.13567236 -0.027480967

conv2.bias f4 [16]
00000000: dcf2 313e d097 143e 9dda 043e 6754 f0bd
00000010: 65a1 103e 419b a13d ac96 b7bd 0176 39bd
00000020: 8628 cbbd 5518 053d fb97 213d 4442 39bd
00000030: e923 de3d e0eb 523c 69ec 58bd 9871 d1bd
0.173778 0.14511037 0.1297402 -0.117348485 0.14124067 0.078909405 -0.08964285 -0.045278553
-0.099198386 0.032493908 0.03945158 -0.04522921 0.10846693 0.01287362 -0.052959833 -0.102267444

linear1.weight f4 [120, 400]
00000000: e6bf b4bc d33f d63c 344e 0dbc 0d45 203d
00000010: 80cc 80bc 5e2b 77bc 3577 463c c7e7 b73c
00000020: 6351 20bd 95dd 1b3d ee59 84bc a9f6 44bc
00000030: e2a9 4c3c 6d8d 13bd eb4c e83c 4261 e8bc
00000040: f884 ff3c 549c 103d 9a56 3cbd c494 30bd
00000050: c3bb b83c 395a 0ebd 821b b7bc a643 4dbd
00000060: 206d 1d3c 7570 a7bc 34ff a63c fb1b f6bc
00000070: 4e72 58bc 83b0 26bd bc8a 323d aa6d dc3c
00000080: 3b3e af3c 1047 4fbd e430 b9bc f111 eebc
00000090: 695d 63bd e41a 3bbc 9f45 4ebd 217a f23c
000000a0: 3372 30bd 26f4 d13c 3ae5 023d 7c85 043d
000000b0: 0552 053d 6632 a8bc 38af 37bd 0c29 44bd
000000c0: 7f15 b5bc cfb6 c4bc 7c9b d33c 8402 b7bb
000000d0: 3e84 a3bb 4e9b e73b ce37 15bd ad3f f7bc
000000e0: c663 1c3d 801f af3c 3e6c 99bc 3495 cb3c
000000f0: 9bba 43bd 91da 5ebd cd77 123d ba0f 2dbd
00000100: 2b42 4c3c cde9 b6bc 3d9f 36bc 0d67 8dbb
00000110: 5cfb 053d a408 823c 3de5 3abd 8b9b 183d
00000120: 8545 b2bc a804 34bd 5c68 e83c cd0c bdb9
00000130: 7367 dbbc 2759 12bc b7f6 f43c 8d11 36bd
00000140: edff 97bc ad94 82bc 8dca 5f3c c3db cf3c
00000150: 98de 28bd ca2a d4bc f319 0bbd 437d 85bc
00000160: 00cc 6cbb 40c1 843b da30 67bc 9a65 78ba
00000170: d06f 4bbd b8f8 3cbd 677e 97bc 18ef 383d
00000180: 3a20 23bd 9f96 213d e31a c3bc 57e0 bbbc
00000190: 4956 1d3d 6cb2 3f3a 875d f13c c854 be3c
000001a0: 6166 19bd b42b 0e3d d36f 5bbd 5763 52bc
000001b0: be75 263c 14ec 8cbc 854b 223c 91f3 8d3a
000001c0: 4ea9 33bd 18b8 ecbb 44ff 55bd df2c 9c3a
000001d0: 9ebe 6cbc 34bb 063d 689a 25bd cfeb 703b
000001e0: 418f 99bc c1b0 1abd be9a 05bd 7b4d ae3b
000001f0: 4aa6 a6bb b451 d13c a505 41bd ba90 26bd
00000200: b915 c2bc e1c5 2e3d 5ccf 1abd 9fce 44bd
00000210: 57fe 0dbd 4b51 033c 0889 e63c 3e27 a13c
00000220: a8d6 a6bb a571 34bd 8061 aabc 2521 3abd
00000230: 8879 e4bb ee40 afbc 8b7a 913c 1495 8f3b
00000240: 1743 35bb 21bc 403a 5f32 12bd 61a8 013d
00000250: 1f8d 0ebd b10f 09bc 93a1 debc 5dac 1b3d
00000260: e5e4 413d b728 cfbc 6375 cd3c 370b 3cbd
00000270: 0191 d3bc a90d 123d 37c7 81bc 0dbc a0bb
00000280: a744 ef3b 607e 313c 0a9e 96bc d149 d0ba
00000290: f3fe 4ebc a795 d03b 7227 10bd 1098 a03c
000002a0: 5041 4f3c 33c8 efba c7bf 183d 97a0 eb3c
000002b0: a1c3 943c b098 1f3d 7327 523c 2344 9fbc
000002c0: 2da3 563c f874 2fbd 2a5b f0bc 889a 30bd
000002d0: b377 81bc 5d5d c7bc 2b0d 383d b3df 443b
000002e0: 0d52 a1bc 1ace 833b 6daf b0bc 63fb 8cbc
000002f0: d09e 23bd 8092 a0bc 3395 a3bb b396 1e3b
00000300: 3d3f f8bc 232c 0e3d 2842 1b3d dda1 eb3c
00000310: 2785 973c 7f6d 133d 7bba 37bd 2a37 dc3c
00000320: bdb8 d6bc d5b9 963b 519f 9e3c 0db6 243d
00000330: 7edf 38bd 8781 b6bc 202d 22bb 3920 0b3b
00000340: f543 033d 29e6 cdbc 158c 0cbd 37cd 3bbd
00000350: d6bf c7bc c44d 0dbd f658 49bd 2bf3 a7bc
00000360: 88f4 823c 3aaa 943c 4ec6 7b3c c24f 70bc
00000370: 0714 61bd a891 213d e5ff 36bd 929a 4dbd
00000380: eeca 713b 15b0 61bd 452d 0d3c df70 003d
00000390: d668 83bc c9d2 393c b5ec cd3c ad8c edbc
000003a0: 58c7 79bc f3cb 013d 57ba 42bd 1ece 3abd
000003b0: 60e6 11bd 6122 43bd af8a 213d de66 233c
000003c0: c090 1e3d 206a d73a 05d6 48bd d09b 41bb
000003d0: 9c93 d63c 1397 d33c 2c35 3abd 9a74 763b
000003e0: a5a5 acbb 739a 48bb 2e77 8b3c e059 083d
000003f0: 5024 0c3c 9bbc efbc bd8c a6bc 9bfd 50bb
-0.02206416 0.02615348 -0.008624602 0.039128352 -0.015722513 -0.015086023 0.012113382 0.022449387
-0.039140116 0.038053114 -0.016156163 -0.012021699 0.012491675 -0.036023546 0.02835699 -0.028366689
0.031191334 0.035305336 -0.045981027 -0.043110624 0.02255047 -0.03475401 -0.022351984 -0.050113343
0.009608537 -0.020439366 0.020385362 -0.030042639 -0.013210846 -0.04069568 0.04358934 0.02690776
0.021391978 -0.05060488 -0.02260632 -0.02906129 -0.055509005 -0.011419985 -0.050359365 0.029599251
-0.04307766 0.025629114 0.03195689 0.032353863 0.032548923 -0.020531844 -0.044844836 -0.047890708
-0.022104977 -0.024012951 0.025830977 -0.0055850167 -0.0049901297 0.0070680743 -0.036430173 -0.03018173
0.03818109 0.021377325 -0.018728372 0.024851419 -0.047785383 -0.05440766 0.035758782 -0.042251326
0.012466948 -0.022328282 -0.011146364 -0.004315263 0.032710418 0.01587326 -0.045628775 0.037257712
-0.021761665 -0.043949753 0.028370075 -0.00036058426 -0.026782727 -0.008932388 0.029902799 -0.04445033
-0.018554652 -0.015940035 0.013659132 0.025373345 -0.041227907 -0.02589931 -0.033960294 -0.016295081
-0.0036132336 0.0040513575 -0.014110768 -0.0009475589 -0.04966718 -0.046135634 -0.01849289 0.045149893
-0.039825656 0.039450284 -0.023816532 -0.022934122 0.038412366 0.00073126587 0.029463543 0.023233786
-0.03745115 0.034709647 -0.05357344 -0.012841067 0.010159908 -0.017202415 0.009905701 0.0010830035
-0.043862633 -0.007224094 -0.052245393 0.0011915228 -0.014449744 0.032893375 -0.040430456 0.0036761647
-0.018745067 -0.037766222 -0.032618277 0.005319295 -0.005085741 0.025551654 -0.047124524 -0.040665366
-0.023691999 0.04266918 -0.03779541 -0.04804861 -0.034666386 0.008014987 0.028141513 0.019672032
-0.005091507 -0.044053692 -0.020798445 -0.045441765 -0.0069724955 -0.021393266 0.017758628 0.004381785
-0.0027658397 0.0007352252 -0.03569257 0.03165472 -0.034802552 -0.0083655575 -0.027176654 0.038006175
0.04733743 -0.025287969 0.025080388 -0.045909133 -0.02582598 0.03565756 -0.015842063 -0.00490523
0.007301885 0.010833353 -0.018385906 -0.001589114 -0.012634027 0.006365496 -0.035193868 0.019603759
0.012649849 -0.0018293917 0.037292268 0.028763099 0.01815969 0.038963974 0.012826788 -0.01944167
0.013100428 -0.04283616 -0.029340345 -0.043116122 -0.015804147 -0.024336511 0.044934433 0.0030040562
-0.019692445 0.004022372 -0.021568025 -0.017209714 -0.039946377 -0.019601107 -0.004992151 0.002419871
-0.030303592 0.03471006 0.03790489 0.028763706 0.01849611 0.035993095 -0.044855576 0.026881773
-0.026211137 0.0045997896 0.019363077 0.04021268 -0.045135014 -0.02227856 -0.0024746135 0.0021228923
0.03204723 -0.025134163 -0.03431328 -0.045850005 -0.024383467 -0.03449799 -0.049157105 -0.020501694
0.015985742 0.018147577 0.015367104 -0.014667453 -0.05495074 0.03944555 -0.044677634 -0.050196238
0.0036894637 -0.055099566 0.00861675 0.031357642 -0.0160412 0.011341759 0.025137285 -0.028997744
-0.015245281 0.03168864 -0.04754099 -0.045606725 -0.035620093 -0.04764021 0.0394389 0.009973256
0.038712263 0.0016434826 -0.04903223 -0.0029542334 0.026193433 0.025828874 -0.045460865 0.003760612
-0.00526877 -0.0030609637 0.017024603 0.033288836 0.008553579 -0.029264739 -0.020330781 -0.0031889442

linear1.bias f4 [120]
00000000: c5f4 c93b c25d 3f3d f556 e43c 505c ef3c
00000010: 1255 c93c f82e dbbc 7883 74bb 214a 00bd
00000020: ecff 763d 518b b33c b9e9 473d cc4b 90bd
00000030: 9ea1 843d a57e cc3c 46d5 cebb ab68 873c
00000040: 4eb5 3fbc bd93 4bbd 75a5 3f3d b64b 6c3c
00000050: df57 173d 10f9 7b3c 009d acbc 299a 97bc
00000060: a99a 90bc c67a 243d dbdd 93bc 5d94 eabb
00000070: c2cb 3d3d b52e 53bd 1398 37bb 3986 8a3c
00000080: b693 703c 0e98 563c 0169 54bd f75f 0b3d
00000090: a23a 18bd 3616 7abc 8afb 713b 8445 043c
000000a0: fb7b 013c bf75 0fbd 186b 883b 8c41 02bc
000000b0: 93f5 873c e940 1f3d 23b2 3d3c 58ea 0d3d
000000c0: c22f b4bc 0941 a73c e56f 4b3c 1fb4 843c
000000d0: efc9 7c3d 9ce3 363b 545f 08bd d318 96bd
000000e0: cb09 333d 0948 933c 4645 babc 7864 32bc
000000f0: 5e8d 573d 277a f73c e003 223d 8ec5 fb3c
00000100: 33ce 973d 0edf f63b d4d5 993c 1b0d 00bd
00000110: eb48 683c 4c0b 0e3d 22ea 0cbd 141f 7b3c
00000120: c940 943b 705c 283c 9f1d 2f3c 2f97 01bd
00000130: 6bd3 863d c1a3 ae3b 1371 173d 679a 3fbc
00000140: c4b8 9a3d 29f8 8b3c 1be4 903b 27de 36bc
00000150: e57c 6b3d edfb 8b3d 5e01 873c 655a ad3b
00000160: a824 6bbc 2c00 5c3c e3b6 c6bc f12e 0e3c
00000170: 387a 073d 0675 093c f046 29bd cdaa 503c
00000180: d3e4 913d 1a6e d63c e374 c03c 5250 c53c
00000190: b68e 193d 1113 4fbb 7e1f 4b3d 7141 123d
000001a0: b44b 93bc 655c bd3c 9e47 4abc bebd 9bbc
000001b0: 190d 8a3b 3e71 e8bb 6645 37bd bd99 2c3d
000001c0: 5baa 13bd 404e 60bd 39d7 48bd c75a d23c
000001d0: 3e19 313c 1aad 33bd 73c7 c33c c739 143d
0.006163212 0.046720274 0.027873496 0.029218823 0.024576697 -0.026755795 -0.0037309807 -0.031320695
0.06030266 0.021917017 0.04880688 -0.07045707 0.064761385 0.024962733 -0.0063120453 0.016529402
-0.011700941 -0.04970144 0.04678865 0.014422348 0.036949035 0.015379205 -0.021070957 -0.018506126
-0.017651873 0.04015615 -0.018050125 -0.0071587996 0.046336897 -0.051558215 -0.0028014227 0.016909705
0.0146836545 0.013097776 -0.051857952 0.034027066 -0.03716529 -0.015264085 0.003692361 0.008073214
0.007903094 -0.0350244 0.004163157 -0.007950198 0.016596591 0.038880263 0.011578116 0.034647316
-0.021995429 0.020416753 0.012416814 0.01619917 0.061716016 0.0027906662 -0.033294037 -0.073289536
0.04371051 0.017978685 -0.02273811 -0.010888211 0.052625053 0.030209614 0.039554477 0.03073385
0.07412376 0.0075339144 0.018778719 -0.0312625 0.014177541 0.034678742 -0.034402974 0.015327234
0.0045243246 0.010275945 0.010688215 -0.03163832 0.065832935 0.0053295796 0.03697307 -0.011694527
0.075547725 0.017086105 0.0044217235 -0.011161364 0.057492156 0.068351604 0.016480144 0.005290317
-0.014352001 0.013427775 -0.024257129 0.008678184 0.03307554 0.008389717 -0.041327417 0.012736035
0.07123723 0.026175547 0.023493236 0.024086151 0.037489615 -0.0031597058 0.04959058 0.03570694
-0.017980434 0.023115346 -0.012346176 -0.019011375 0.004212987 -0.0070935776 -0.044743918 0.042138804
-0.036051136 -0.054762125 -0.049033377 0.025678052 0.010809241 -0.043866254 0.023898816 0.036187913

linear2.weight f4 [84, 120]
00000000: 4782 af3d 7ca2 c23d 1c8b ad3d 234b a6bd
00000010: 9428 953d 4953 b93b abfa 23bd e8ab 333d
00000020: c457 833d 9fb7 4fbd 96f6 1a3e 5e69 183d
00000030: 3e62 4d3d 8ae5 93bd 42ce 20bd 4cfc 91bd
00000040: e302 63bd e70c 213d bf0e 513c f1c1 55bd
00000050: 3764 2a3c 87ca 483c ffe2 4cbd b78e 4fbd
00000060: af50 b1bd 18df b23c 31f8 abbd bca4 a93d
00000070: 5d29 873d 6a12 783d 4a2e bf3d a9ef 7c3d
00000080: 55de 5abd f745 85bd f0db 363d 3778 14bb
00000090: 072a 7d3d 2b17 b23d 3f3b dfbc 4fde f13b
000000a0: fe3a 16bc 8e0a 723d 3699 ce3d 2b87 8cbd
000000b0: ec3a 133d a9a8 023e 9eb3 32be 8edf 72bd
000000c0: 4c72 66bd fb5d 6e3d 9c0e ccbd a07e 7cbd
000000d0: b5be 18be bf57 22be 130f 08be 94ef 993d
000000e0: a9dd 0e3d 0bd1 843d a6fd 403e d121 eabd
000000f0: 99fd 343d 56b9 ef3d fa66 903d 9801 a63d
00000100: 53a2 6cbd 4279 5d3d 4186 a73d 70c5 483d
00000110: 8201 783d 6176 6abc 0e08 703d 276e 02be
00000120: 3339 76bd 8376 b33d b3d6 2b3d 00a2 c4bd
00000130: d711 70bd 30d4 d7bc b5df adbd 7b21 993d
00000140: 0821 12be d788 9cbd d8c1 b9bb 5c10 b2bd
00000150: ce92 b23d 2f10 dbbc cce6 3d3d fb48 ab3d
00000160: 1c9b 873d add2 66bc b9c4 28bd c9df 423d
00000170: b1b0 3e3a 4dec 4bbd f592 533d 5944 cd3d
00000180: de96 713d 2049 81bd c0bd acbb ec66 02be
00000190: bf06 c73d 9051 c2bd 5968 923d aa3a b1bb
000001a0: e6e3 9e3d 8441 713d 404e 01bd 4a31 183d
000001b0: 7891 debc 3b90 0c3e 90db dfbd a355 1dbd
000001c0: 301a 0dbd 7728 ad3d 8980 313d fc01 c9bd
000001d0: e1b4 bcbc a28c 403c ab86 713c 0aec df3c
000001e0: 9945 ab3d 1996 f23d fcde 2fbc 60e5 15bd
000001f0: a71f 83bb c20a 3c3d 66ae 28bb 600d 3a3d
00000200: 43b9 c33c cf95 b3bc d70c 633e 9fe8 153d
00000210: c350 82bd 203e 6ebd 5b67 8f3d 818b a1bd
00000220: ea50 65bd 647f 8dbd a10a 423d 0a2e adbd
00000230: 7032 aabd 56b8 03bd ca0e 41bd 6801 76bd
00000240: 4332 0ebd d5d8 1039 7e09 883d b928 e93d
00000250: 754f da3d 1b9e 6e3d 477f ccb9 6409 0f3e
00000260: 5c7e 4b3c 1417 433d 5210 bb3d cc10 7abd
00000270: 5b74 2ebd c0a5 e5bc 50ce a83d 78f6 ae3c
00000280: cf09 d3bc 15e7 a237 c61e 6a3d c12e c03d
00000290: 70d0 40bc 70a6 c8bd a877 dfbd 594e 993d
000002a0: 23bc bebd 4453 69bd ba82 913d 4d89 853d
000002b0: 101d 2b3d 5e1e 3abc 0b50 053e 4d0e 0f3e
000002c0: 490b 8e3b e18b 36bd 84c6 263b 665d 663d
000002d0: 0132 05be d1ca 4ebd 8ff9 c8bd 6f05 fc3c
000002e0: 6909 01be a0bd ce3c 1cbf 073d b859 933c
000002f0: 261f f33d 079f 1c3e 176c e1bd 2b3b 8fbd
00000300: c850 aa3b c4d9 e43c 3dc4 ddbd b9a0 3b3e
00000310: cdd5 e8bc d387 8dbd daac 36be 4577 1c3d
00000320: f924 28bd 9603 55bc 9a90 63bd 930b 193e
00000330: d036 d93c 3381 03be 308c 033e 7546 023d
00000340: 0e79 083d 6520 4d3d bccc a13d a31c 8f3d
00000350: 8c33 b03c 1f16 803d 62c7 e93c 025a ee3d
00000360: 921c b43d e980 02bd 6c1f b6bd 7fd0 c53b
00000370: 6969 9abd d79a d83d 83a3 b63d f0af 9d3d
00000380: 3e24 c33d 0c6f ac3d ffe3 96bd ffbf 9cbc
00000390: c24c 1eba e953 413d c4eb c53d 2c87 a83d
000003a0: f273 31bc 3528 da3d 7cab 103d 66c6 653c
000003b0: ad32 913b 59fe d03d 7359 d03c 483c 573d
000003c0: 3ca4 afbd 58f4 673d 0426 06bd 07af a33a
000003d0: 0cac 36bd 2bc1 cc3b 6cfb a13c c658 d4bc
000003e0: ef91 c13d 7ced e23d 88dd 243d dccd 96bd
000003f0: bc04 00bd c8ea aabc 6a5e 35bd 8c03 a93d
0.0856977 0.09503648 0.08473799 -0.081198 0.0728313 0.0056556803 -0.040033977 0.043865114
0.06413224 -0.050712224 0.15133128 0.03720986 0.05014252 -0.072215155 -0.039259203 -0.071282
-0.055422675 0.039318945 0.012759863 -0.05218691 0.01039987 0.0122553175 -0.050021168 -0.050673213
-0.08657967 0.021834895 -0.08396948 0.08283374 0.06599686 0.060564436 0.09335001 0.061751995
-0.05343469 -0.06507485 0.044643342 -0.0022654661 0.06180766 0.08695825 -0.02724993 0.0073812376
-0.009169338 0.059092097 0.100878164 -0.06861719 0.035944864 0.12759651 -0.17451331 -0.05929523
-0.056261346 0.058195096 -0.09963724 -0.061644197 -0.14916499 -0.15853785 -0.13287 0.07516399
0.03487936 0.06485184 0.18846759 -0.11432231 0.044187162 0.11705272 0.07050891 0.08105773
-0.057771992 0.05407072 0.08179904 0.049016416 0.060548313 -0.01431045 0.05860143 -0.12737332
-0.060113143 0.08762839 0.0419528 -0.096012115 -0.058610763 -0.026346296 -0.08489934 0.07477089
-0.14270413 -0.07643288 -0.00566886 -0.086945266 0.08719407 -0.026741115 0.046362683 0.08363529
0.06621382 -0.014088315 -0.041203234 0.0475767 0.0007274254 -0.0497859 0.05165382 0.10022802
0.05898177 -0.063127756 -0.0052716434 -0.12734574 0.097180836 -0.09488213 0.07148809 -0.0054086046
0.07758312 0.05890037 -0.031568766 0.03715638 -0.027168974 0.13726895 -0.1093055 -0.038411748
-0.034448802 0.08454984 0.04333547 -0.098148316 -0.023035469 0.0117522795 0.01474158 0.027334232
0.08362884 0.11845035 -0.010734316 -0.036595702 -0.004001576 0.045908697 -0.0025738715 0.04542291
0.02389205 -0.02192202 0.22172867 0.036598798 -0.0636306 -0.058164716 0.07002135 -0.078879364
-0.05598537 -0.069090635 0.047373418 -0.08456047 -0.083104014 -0.03215822 -0.047133245 -0.060059935
-0.034715902 0.00013813686 0.066424355 0.1138472 0.106596865 0.05825625 -0.0003900474 0.13968426
0.012420263 0.04762943 0.09133972 -0.061051175 -0.042591434 -0.028033137 0.08242476 0.02135776
-0.025761513 1.941951e-05 0.057158254 0.093839176 -0.011768445 -0.097973704 -0.109114945 0.07485647
-0.09313228 -0.056964174 0.07105012 0.06520329 0.041775763 -0.011359779 0.13018815 0.13970299
0.0043348414 -0.044566993 0.0025447914 0.056241415 -0.13007356 -0.05048639 -0.098132245 0.03076431
-0.12601246 0.025236905 0.03314124 0.017987117 0.118711755 0.15295039 -0.110069446 -0.06993707
0.005197618 0.02793587 -0.10828445 0.1832303 -0.02842226 -0.06910672 -0.17839375 0.03819968
-0.041050885 -0.013001343 -0.055557825 0.14945821 0.026515394 -0.12842254 0.12846446 0.031805474
0.03331857 0.050079722 0.07900378 0.06987884 0.021508954 0.06254219 0.028537456 0.116382614
0.08794512 -0.03186122 -0.08892712 0.0060368176 -0.07539637 0.10576408 0.08917906 0.07699573
0.09528397 0.08419618 -0.073677056 -0.01913452 -0.00060386595 0.047199164 0.09664109 0.08228907
-0.010830866 0.106522 0.03531979 0.014024353 0.00443109 0.10204763 0.025433278 0.052547723
-0.08576247 0.05662951 -0.0327511 0.0012488075 -0.04459767 0.0062486134 0.019773208 -0.025921237
0.09451663 0.11080453 0.04025033 -0.07363483 -0.031254515 -0.020863906 -0.044279493 0.0825263

linear2.bias f4 [84]
00000000: 3ff5 af3d c831 593c 02dc d43d 442d 973d
00000010: bcbc 1ebd 6c7b 293d 54fd 15bd f809 bf3d
00000020: 9fd3 4e3d c1b3 9dbd 71cd 8cbd 43fa 45bd
00000030: b935 6b3d fc79 4fbc e54a f93c c166 ac3b
00000040: 9196 8b3d 2c9a 3b3d 388f 143e fdca a5bd
00000050: 3f3b 6b3d b198 59bc bc33 e1bc 82bf a93c
00000060: 04c9 2abd f37f be3d 17ac 703d c103 dabb
00000070: 5e7d 823d b6e6 aabd d3cb 533d ba86 123b
00000080: 4292 1abd d38c 36bd d3ff d43c 2262 9a3d
00000090: baee 103d af5d feba 5a43 acbd 58ab 00bd
000000a0: 8cac b93d bfc2 82bd 0dfa ce3c 7f82 93bc
000000b0: 6b5f df3c 93d2 563d befc 3a3d 282f d53d
000000c0: ed5f 3dbd 8305 80bd 3ddb 0bbd 2c9d 9a3d
000000d0: 9ea9 3ebb 3748 b43d b92f 063e a825 c33c
000000e0: 1c43 b73d 1ba4 47bd 2aa7 d63c 2101 0cbd
000000f0: eb5c 053d 0266 e1ba faf3 223d fece c93d
00000100: 2e69 9f3d 3495 28bd fb06 363d 0a72 8dbd
00000110: 107e babd e7e9 57bd 1589 44bd 4502 18bc
00000120: 8d10 d63d acb7 783d edf8 e03c 0e37 d53c
00000130: 2760 cfbb 4d43 09bd 9a7c c5bc f2ff 17bd
00000140: aea0 9b3d a453 5a3d 5753 a5bd b360 9fbd
0.08591699 0.013256498 0.10393526 0.073816806 -0.03875421 0.04137747 -0.036618546 0.09328073
0.050494786 -0.07700301 -0.06875122 -0.04833437 0.05742428 -0.012663361 0.03043122 0.0052612727
0.06815828 0.045801327 0.14507759 -0.080953576 0.05742955 -0.013281033 -0.02749049 0.0207212
-0.04169561 0.09301748 0.058757868 -0.0066532795 0.06371568 -0.08344786 0.051708054 0.0022358135
-0.03773714 -0.044567894 0.026000893 0.075382486 0.035383917 -0.0019406582 -0.08411284 -0.031413406
0.09066114 -0.06384801 0.025265718 -0.018006561 0.027267179 0.052446913 0.04565119 0.10409385
-0.04623406 -0.06251051 -0.03414463 0.075495094 -0.00290928 0.088028364 0.13104142 0.023821667
0.08948347 -0.048740488 0.026202757 -0.034180764 0.032559317 -0.0017196538 0.039783455 0.09853934
0.07783733 -0.041157916 0.04444025 -0.06906517 -0.09106076 -0.0527133 -0.047982294 -0.009277885
0.104523756 0.06072204 0.027462447 0.026027229 -0.006328601 -0.03351145 -0.024107266 -0.037109323
0.075990066 0.053302422 -0.080725364 -0.07782116

linear3.weight f4 [10, 84]
00000000: 2784 27be 3b1f f53d 685e 0f3d d611 13be
00000010: b04c afbd 866a c03d e173 e9bd 2015 183c
00000020: c927 c73d 8411 eabd f7df 04bd 1627 e93d
00000030: 740d 1cbd c786 e73d 480b a3bd 9f83 28bd
00000040: 1765 cd3d f50b c0bd 88be 30be f784 1e3d
00000050: 5668 1abd 4f23 bd3c 739b 58bd 4d42 d7bd
00000060: 3284 3a3e c152 9d3c 14bb cb3d cd5d 8b3d
00000070: 5069 d83d 9b64 1c3e f12a 6ebd 78fc cc3b
00000080: db56 ebbd 4c81 0d3e 757b 02be 1ca6 6ebd
00000090: 3a07 bdbd 8be5 e8bd fa14 ce3b 9c1c 053d
000000a0: dd69 55bd 30fd 373d 23c5 4cbc 49ea 383d
000000b0: 48e0 953d 7b42 16be 3733 9b3c 8edb ffbd
000000c0: 51f7 1c3d 3696 6b3d 4818 e03b 336d b4bb
000000d0: 45f0 203e 2b2e 1cbe 958d 20be 7b58 c9bc
000000e0: de6b e03d 93a6 a73c 63a2 06bc ce4f 01be
000000f0: ea8a fbbd 08a8 9a3d 01df 813d 8698 c8bc
00000100: e740 ef3d 44a1 b03d c17c 0ebe 4489 c1bd
00000110: 94dc 73bd 94fc 093d ef02 4fbd 5d6e 7e3c
00000120: 909c 9b3d 0cea 833d d994 d3bd 0747 c33d
00000130: bcf4 4fbd bf30 ce3d 0f7b a43d 0d97 e8bd
00000140: 7633 e93d b104 ad3d 65d4 a1bd 2bc1 803d
00000150: d837 fe3c cee4 e8bd da1e 0ebe 6ca8 c4bc
00000160: dcf7 4b3d bf98 aa3d 80c6 eb3d 76a1 15bd
00000170: b136 f6bc b465 73bd c53d b1bd f980 d2bd
00000180: 4e9f fc3d c856 513d 5af0 823d 5054 8dbd
00000190: 1381 edbd ee3b 053e 2963 ecbd f4a1 24bd
000001a0: 68d1 073e 97bb 723e 3cf6 a13d 675e c33d
000001b0: c22c 213e 1032 5d3d 802f cfbc 265c 1cbc
000001c0: 0d34 a93d 6acd 123e dbc7 fcbc 14c1 e0bd
000001d0: 7e04 acbd f000 923d b018 4f3d 743c dfbd
000001e0: a941 d4bd 9355 15be c9ba 813d 0e18 113e
000001f0: 7733 16be 53b3 583d 57ab 86bd f972 0b3e
00000200: 4110 e2bc 9210 8abd 8469 c73d fb8b 44bd
00000210: 0d9a b9bd 2532 0a3e dd91 97bd 1076 9c3d
00000220: bee7 abbc 7b7a 0f3e 9aa0 b03d 6c17 a73c
00000230: e748 143e 1ccc a2bd 4439 08be 95c5 dd3d
00000240: 217a 9f3c d921 a7bd b0f1 85bd dc68 f53d
00000250: 47e3 173e 093b 423d 327e 143e 1087 ea3c
00000260: 0fb3 273c 3c94 92bd 780c b1bd 6c46 cdbd
00000270: 82fd 81bd 9f5c 27be 0121 dc3d 5e7f 3f3d
00000280: c688 893c 6e7a 433d 7f6d 08be c0df cd3c
00000290: f8dd 0ebe 4114 18be 9020 9c3c cf23 08bd
000002a0: 7aad 9d3c fd07 efbd 9995 b0bd 44b9 ecbd
000002b0: b110 aabd 5d28 043e 10ee 123d 69b5 f83d
000002c0: e46e 5cbd 5cbc 123e a499 e93d cd77 31be
000002d0: ded1 053e 7a34 10bd 4b9b c93c c3e9 27bc
000002e0: dc1a 883c f160 a63d d077 103e e8cf 96bc
000002f0: e98e ab3c ad48 9e3b fda7 b7bd 5a7c 843c
00000300: f5d7 d33d e749 063d ca01 3fbe 70ac c0bd
00000310: 9cf3 7c3d f655 133b 11f1 2dbd 5d14 7d3d
00000320: eb4b fb3c 1bb9 a0bd 2282 f63d ff74 b83d
00000330: bd7b f3bd b82e 85bd 0c7e db3d 1d61 603e
00000340: b65f d23d 4486 67bd 9a4b a23d 158e 5d3d
00000350: 79d3 87bd 639f 8e3d 60e9 4c3d 84e9 ef3d
00000360: 6897 8d3d a98f 08be e71b 31bd 5689 193d
00000370: 0d8f 23bc ebf7 9bbd 7584 9ebd c57d 2bbe
00000380: 236c 9f3d 725c 8f3d b74c eb3c 9f6c 0f3e
00000390: b207 15be e303 173e c158 1f3e fb39 0dbd
000003a0: 7bd9 773d 8a10 9a3c 5fe5 aabd fe2a babd
000003b0: a3b8 13bd de06 2cbd ec19 b13d 4e32 9dbc
000003c0: 721d 89bd a49c 82bd 9ab5 093e 4a3d f5bc
000003d0: 5e32 f13b a9ee 0b3e 3fee 88bc 8798 f03b
000003e0: a43b 84bd 2d53 153e b2c7 1a3d d904 483d
000003f0: fb42 c6bd 10c3 dd3c 1eb9 ae3d 2144 08be
-0.16359006 0.11968847 0.035002142 -0.14362273 -0.08559549 0.09395318 -0.11399055 0.00928238
0.09724385 -0.11429122 -0.032440152 0.11384408 -0.038098767 0.113050036 -0.07961136 -0.04114115
0.10029047 -0.093772806 -0.17260182 0.038701024 -0.03769716 0.023088126 -0.052882623 -0.10510693
0.18214491 0.0192045 0.09947792 0.068050005 0.10566962 0.15272753 -0.05814642 0.0062556826
-0.11491176 0.13818854 -0.12742408 -0.058263883 -0.09229894 -0.11371907 0.0062891217 0.032497987
-0.052102912 0.044919193 -0.012498173 0.045145307 0.07318169 -0.14673798 0.01894532 -0.124930486
0.038321797 0.0575163 0.006838832 -0.0055061816 0.15716656 -0.15251987 -0.1567901 -0.024578324
0.10958074 0.020465171 -0.008217427 -0.126281 -0.12282355 0.07551581 0.06341363 -0.024486791
0.11682301 0.08624509 -0.13914777 -0.094500095 -0.05953653 0.033688143 -0.050539907 0.015529242
0.07598221 0.06441125 -0.10331125 0.09535032 -0.050770506 0.10067891 0.08031284 -0.11356936
0.113867685 0.084481604 -0.07901839 0.06286844 0.031032488 -0.11371766 -0.13878956 -0.024006091
0.049796924 0.08329915 0.1151247 -0.036530934 -0.030055376 -0.059423164 -0.0865436 -0.10278506
0.123350725 0.05110815 0.063935 -0.06900847 -0.115968846 0.13011143 -0.11542351 -0.040193513
0.13263476 0.23704372 0.079082936 0.0953949 0.1573973 0.05400282 -0.025291204 -0.009543454
0.08261881 0.14336172 -0.030857017 -0.10974327 -0.08399294 0.07129085 0.050560653 -0.109002024
-0.10364086 -0.14583425 0.063344546 0.14169332 -0.1466807 0.052905392 -0.06575649 0.13618077
-0.027595641 -0.06741442 0.097369224 -0.04798506 -0.09062586 0.13495691 -0.07400868 0.07639706
-0.020984527 0.14011566 0.08624382 0.02039691 0.14480935 -0.07949087 -0.13303095 0.108287014
0.019467415 -0.08160753 -0.06540239 0.11982891 0.14832793 0.04741958 0.14501265 0.028628856
0.010235562 -0.0715718 -0.08644956 -0.100231975 -0.06347181 -0.16343926 0.107484825 0.046752326
0.016788851 0.04772418 -0.1332302 0.025131106 -0.13951862 -0.14851476 0.019058496 -0.033237275
0.01924776 -0.116714455 -0.086222835 -0.11558774 -0.08303965 0.12906022 0.035871565 0.12143976
-0.05381669 0.14329666 0.11406258 -0.17330857 0.13068339 -0.035206296 0.024610182 -0.010248604
0.01661437 0.08123959 0.14108205 -0.018409684 0.020942168 0.004830441 -0.08967588 0.016172577
0.10343925 0.032785323 -0.18653026 -0.0940789 0.06175576 0.0022481657 -0.042466227 0.061786998
0.030675849 -0.07847806 0.120365396 0.0900669 -0.118888356 -0.065030515 0.10717401 0.21912046
0.10272162 -0.05652453 0.07924576 0.054090578 -0.06632132 0.06963994 0.05002725 0.117144614
0.06913644 -0.13336052 -0.0432395 0.03748449 -0.009982836 -0.07615646 -0.07740108 -0.16747196
0.07784297 0.070000544 0.028723104 0.1400628 -0.14553717 0.14747576 0.155612 -0.034479123
0.06051014 0.018806715 -0.0834453 -0.09090231 -0.036064755 -0.041998737 0.08647522 -0.019189026
-0.066950694 -0.06377533 0.13448182 -0.029936451 0.0073607406 0.1366526 -0.016715167 0.0073424014
-0.06456688 0.1458251 0.0377881 0.048832748 -0.09680744 0.027070552 0.08531402 -0.13307239

linear3.bias f4 [10]
00000000: 38d3 a9bd d7ea f13c fe68 b6bd 5a5e 083d
00000010: b4e2 35bd a929 c53d 277d b53c 9694 5dbc
00000020: 9b59 36bc ed7e ce3d
-0.0829224 0.029530926 -0.089067444 0.033293106 -0.044405654 0.09627087 0.022154404 -0.013524195
-0.011129762 0.10082803
